obsolete/squad_v2/weights/ori_model.pth (torch_old, 33277 bytes, 2 tensors)

qa_outputs.weight f4 [2, 4096]
-0.005319166 -0.0481999 0.010115291 0.011373795 0.0110120475 0.013993826 -0.0043551833 0.0062879412
0.014321237 0.020389095 0.0038467315 0.012407812 -0.014628817 0.008407884 -0.00025620256 -0.0038762805
-0.032045882 0.01048273 -0.031979017 0.020962305 0.0018257045 0.042384423 0.04016761 0.00043900523
-0.007933036 -0.003978199 -0.00808548 -0.018253518 -0.040564295 0.017654827 -0.029632999 -0.008809981
0.013300208 -0.027085276 0.052368525 0.0026572652 0.006751369 0.03480879 0.019163858 0.023947315
0.0061653056 0.012976004 -0.007764268 0.027911222 0.0019405807 0.03201721 -0.009753277 -0.019865824
-0.036834206 0.016314082 0.007216219 0.014189055 0.013656838 1.994185e-05 0.011321882 0.02041948
0.02248201 0.018262407 0.044315044 0.024878874 0.00430183 -0.004210238 0.027980026 -0.026383054
-0.0050879316 -0.033118647 0.0017848957 -0.008534597 -0.023055485 0.008338763 0.005150335 -0.016495353
-0.019934596 0.0024848585 -0.011922545 -0.0012440692 -0.025701698 -0.015469736 -0.010803133 0.01732547
0.00045136487 0.029096965 -0.0046840417 -0.01512382 0.0149874035 -0.0072812135 0.016412143 -0.010615429
0.04946064 0.01580609 -0.0025495305 -0.019821674 0.020867512 -0.011038053 0.03292218 0.01640818
0.009268043 0.023587529 0.043735147 -0.027185788 0.044476986 -0.02653164 -0.021018136 0.009198265
-0.014105677 0.0016375505 -0.02914919 0.021404473 0.01080626 -0.012892269 -0.01076598 -0.015866186
-0.019475091 -0.02867308 0.0096664075 0.031038865 0.012170688 0.009812991 0.036938846 -0.0091167465
-0.014733562 -0.03208076 -0.01732737 0.021164821 -0.004585343 0.0122501785 0.0042674066 -0.0032153553
0.016917655 0.009998169 0.021120232 0.01978623 0.011600478 0.012754399 0.016773248 -0.020762226
-0.0009912674 0.022060525 -0.0051675136 0.048369817 0.0017333499 0.005632014 -0.026325502 0.03615741
0.04386719 -0.0129237855 -0.00056994846 0.017586526 0.00041649886 0.018341435 0.016473409 0.0068110325
-0.005362215 0.0015212381 -0.01840576 -0.014612506 -0.017592045 -0.011844444 -0.00307232 0.019266596
0.010619285 -0.008926807 0.02770332 -0.011657981 -0.03230928 -0.0066954563 -0.026743185 -0.017047895
-0.0071944664 -0.0032558339 -0.02305452 0.010694688 0.030742189 0.0043316027 0.019795833 0.0011596004
0.014399153 -0.0053067026 -0.015453958 -0.0328441 -0.0045129727 -0.038927495 -0.002043098 -0.019949768
-0.03438221 0.007749835 0.010107706 -0.0024818988 -0.027224861 -0.01600035 -0.020844806 -0.06163837
-0.033206914 -0.02874435 0.0069282744 -0.011715866 0.002187993 -0.01847893 0.004852146 0.045667402
0.024481501 -0.01024808 0.02598033 -0.006841435 -0.037223417 -0.008351944 0.003289172 -0.018914608
0.004140193 0.0050944583 -0.027745908 0.036221843 -0.011714195 0.0069669904 0.040408354 -0.011894522
0.0072527216 -0.022488305 0.01661857 -0.012108437 -0.008128012 0.00848096 -0.0073506176 0.032598376
0.0024633617 -0.0049103713 0.03827592 0.017396152 -0.010399493 0.010096068 0.033853803 0.009852518
-0.0111783305 -0.006437904 0.051741924 -0.0055206046 0.01591309 -0.0075971205 -0.010597311 0.01793651
0.028569946 0.0061894143 0.010174891 0.0053100055 0.044053234 0.0011912805 -0.02775097 0.015391583
0.015971709 0.030977579 -0.010197682 0.007886174 -0.019756002 0.010865186 0.014252534 -0.0070569324
00000000: 664c aebb 426d 45bd 9bba 253c 2759 3a3c
00000010: e06b 343c 5c46 653c edb5 8ebb 130b ce3b
00000020: 9fa3 6a3c 0807 a73c 7219 7c3b 234a 4b3c
00000030: b5ad 6fbc 39c1 093c ed52 86b9 3209 7ebb
00000040: 8b42 03bd c2bf 2b3c 6efc 02bd 24b9 ab3c
00000050: 7a4c ef3a 4a9b 2d3d cb86 243d 492a e639
00000060: 91f9 01bc 8d5b 82bb f678 04bc 6788 95bc
00000070: bf26 26bd dba0 903c e7c0 f2bc bd57 10bc
00000080: 1ee9 593c f1e1 ddbc 6180 563d 8325 2e3b
00000090: 973a dd3b a993 0e3d 86fd 9c3c 292d c43c
000000a0: 5506 ca3b 4e99 543c 676b febb 13a6 e43c
000000b0: 155b fe3a 7a24 033d 35cc 1fbc a7bd a2bc
000000c0: 77df 16bd 1ca5 853c 0876 ec3b 3679 683c
000000d0: eec0 5f3c cc48 a737 6a7f 393c c146 a73c
000000e0: 312c b83c 0b9b 953c b183 353d c8ce cb3c
000000f0: 5ef6 8c3b 09f6 89bb 5e36 e53c 4621 d8bc
00000100: aab8 a6bb 6ba7 07bd 29f3 e93a b2d4 0bbc
00000110: dbde bcbc 4f9f 083c 24c4 a83b 4321 87bc
00000120: e14d a3bc 02d9 223b c756 43bc 0910 a3ba
00000130: 5e8c d2bc c774 7dbc a0ff 30bc 25ee 8d3c
00000140: 2ba5 ec39 c25c ee3c 977c 99bb e6c9 77bc
00000150: ba8d 753c 3f97 eebb c272 863c 56ec 2dbc
00000160: 3d97 4a3d c67b 813c 0616 27bb 1061 a2bc
00000170: 58f2 aa3c f3d8 34bc 68d9 063d 736a 863c
00000180: fdd8 173c a23a c13c a023 333d bbb4 debc
00000190: 802d 363d e258 d9bc 3a2e acbc 52b4 163c
000001a0: 7f1b 67bc 14a3 d63a 48ca eebc 6f58 af3c
000001b0: bd0c 313c 183a 53bc cb63 30bc cef9 81bc
000001c0: 3a8a 9fbc cfe3 eabc da5f 1e3c 3845 fe3c
000001d0: 9167 473c abc6 203c 304d 173d 685e 15bc
000001e0: 0a65 71bc 1d67 03bd 21f2 8dbc d961 ad3c
000001f0: a540 96bb f9b4 483c 9ad5 8b3b b6b8 52bb
00000200: e596 8a3c 5ccf 233c 5604 ad3c bb16 a23c
00000210: ee0f 3e3c d4f7 503c 0d68 893c 8b15 aabc
00000220: 6aed 81ba 46b8 b43c 3f54 a9bb 6e1f 463d
00000230: 9231 e33a c28c b83b 94a8 d7bc cb19 143d
00000240: 15ae 333d 49be 53bc 9868 15ba 9e11 903c
00000250: 885d da39 c740 963c 3ef3 863c 152f df3b
00000260: 85b5 afbb 4864 c73a adc7 96bc 4b69 6fbc
00000270: 311d 90bc 330f 42bc fa58 49bb fbd4 9d3c
00000280: 82fc 2d3c be41 12bc 13f2 e23c 1e01 3fbc
00000290: bc56 04bd 8f65 dbbb 8614 dbbc 07a8 8bbc
000002a0: 8fbf ebbb d45f 55bb d5dc bcbc c638 2f3c
000002b0: 0bd7 fb3c 1ef0 8d3b df2a a23c bcfd 973a
000002c0: 6dea 6b3c d9e3 adbb 9932 7dbc 8987 06bd
000002d0: 8fe1 93bb 7072 1fbd 7fe5 05bb b26d a3bc
000002e0: 5cd4 0cbd 54f2 fd3b cb9a 253c 5aa7 22bb
000002f0: ac06 dfbc 2a13 83bc bac2 aabc 8478 7cbd
00000300: f903 08bd 4579 ebbc 9406 e33b e7f3 3fbc
00000310: 6e64 0f3b 2061 97bc c0fe 9e3b be0d 3b3d
00000320: 6e8d c83c 90e7 27bc b3d4 d43c 1e2e e0bb
00000330: 9577 18bd 98d6 08bc 268f 573b cff2 9abc
00000340: 75aa 873b 6aef a63b 634b e3bc 5b5d 143d
00000350: e5ec 3fbc 5a4b e43b 3b83 253d 3ee1 42bc
00000360: 3da8 ed3b 6539 b8bc ab23 883c 7762 46bc
00000370: 5a2b 05bc b9f3 0a3c 73dd f0bb e085 053d
00000380: 5a70 213b 2ee7 a0bb 36c7 1c3d 6082 8e3c
00000390: a362 2abc fa69 253c 49aa 0a3d 756c 213c
000003a0: 5125 37bc 0ef5 d2bb 57ef 533d 30e6 b4bb
000003b0: 2b5c 823c 44f1 f8bb 58a0 2dbc 96ef 923c
000003c0: 850b ea3c 92d0 ca3b 96b4 263c 8eff ad3b
000003d0: 2a71 343d be24 9c3a 0156 e3bc fa2c 7c3c
000003e0: 1ad7 823c b1c4 fd3c 2e14 27bc 0335 013c
000003f0: 57d7 a1bc e503 323c 7683 693c d73d e7bb

qa_outputs.bias f4 [2]
0.03514405 0.022137832
00000000: 35f3 0f3d 665a b53c
